checkpoint_qnetwork.pth (torch_old, 57012 bytes, 5 tensors)

fc1.weight f4 [100, 33]
0.19900504 -0.39158982 -0.5398089 -0.1292642 0.10004186 0.28635293 -0.20943457 -0.060064103
0.054489844 0.025215233 0.04040575 -0.17653413 -0.07286782 -0.31260133 0.13514775 0.11403202
-0.004257415 0.19262005 -0.06895965 -0.00023372422 0.075799994 0.01743158 -0.17652744 -0.10633201
0.08643322 0.093005694 0.07556881 0.0096669905 -0.039051905 -0.022879466 -0.15598486 0.048735425
0.3343696 0.36871183 -0.37224588 -0.020633547 0.12814298 -0.13031258 0.074613474 -0.0806883
-0.098162085 -0.05658008 0.06203253 -0.013377217 0.03350706 0.08648122 -0.46531767 0.17941517
0.13704574 0.28490558 0.07355436 0.16098408 -0.14955583 -0.012776678 0.1721954 -0.092139214
-0.14887108 0.038953293 0.04490849 -0.17311876 0.51854116 0.19679879 0.067701176 -0.23572119
-0.11065131 -0.55313474 0.021182422 -0.19289641 -0.14488418 -0.23595887 0.2862604 0.36920083
-0.26060107 0.21965308 0.28028998 -0.031070486 -0.06419893 0.013982789 -0.047231585 0.01686933
0.20663561 0.04465764 0.08259912 0.093894444 0.00044457032 0.3717599 -0.14548105 -0.17215587
0.18376882 0.024553552 -0.034929343 0.20598598 -0.20233446 0.18165357 0.10367984 -0.01431714
-0.26381955 0.027219072 0.43288228 0.35347605 -0.18472412 0.13072106 -0.07181904 0.0022534677
0.007454744 0.03782678 -0.05172507 -0.15259057 0.15071647 -0.04506162 0.10862177 0.09843831
-0.54956204 0.20389964 -0.080294296 0.0615215 0.17293222 -0.01978444 0.0010552981 -0.005390051
0.011761161 -0.063723564 -0.271211 0.07332054 -0.17131686 0.32316232 0.18906254 -0.011846565
0.13626814 -0.2092633 0.15858278 -0.68156916 0.24539673 0.1293792 -0.18034537 -0.2147923
-0.15498686 0.22423151 -0.4006507 0.009483432 -0.18017754 0.10741877 0.15764192 -0.114215516
-0.071593314 -0.14398994 -0.043375596 0.19397779 -0.13295457 0.020280024 0.09607029 0.10599936
-0.042867377 0.055054806 0.21871524 -0.022570327 0.04942184 -0.026119728 -0.24488373 0.23518613
0.20539938 0.1161668 -0.31488568 0.05459608 0.6772041 -0.15933096 -0.113223076 -0.3255989
-0.017328259 -0.20537633 -0.39466253 -0.07339808 -0.09342982 0.18396375 0.26039606 -0.108079195
0.041589085 0.08023896 -0.16493466 0.43219888 0.2973357 -0.0949954 -0.20258184 0.03653216
0.049902756 -0.10706617 -0.16421236 -0.017135782 -0.10946396 0.25374734 0.2146919 0.01122506
0.38523835 -0.19058791 -0.09172433 -0.44806063 -0.16945624 -0.77250683 0.09854062 -0.38398165
-0.33832413 -0.051968887 0.15980767 0.015024131 0.118731245 -0.00332789 0.10516128 0.45750216
0.110283054 -0.076135114 0.04100585 0.1860172 0.23814033 0.3339986 -0.020301584 0.19997962
-0.17438978 -0.2154375 -0.03357976 0.036660746 -0.11357666 -0.09564842 0.084152125 -0.07268636
-0.053691234 -0.05517995 -0.03481112 0.15084016 0.118470974 -0.08309545 0.0855314 0.38390824
-0.09733529 0.268332 -0.007006624 -0.13688903 0.10258587 -0.30551103 0.06794403 -0.19471073
0.11525547 0.13184825 -0.03744448 0.050994784 -0.45603576 0.04425245 0.023829425 0.0739763
0.078069925 0.17382897 -0.061687026 0.060366817 -0.040893782 -0.040281866 -0.034182113 0.061758775
00000000: fac7 4b3e 767e c8be eb30 0abf d65d 04be
00000010: bfe2 cc3d da9c 923e 0476 56be c705 76bd
00000020: be30 5f3d 2d90 ce3c 8080 253d 5dc5 34be
00000030: b93b 95bd 480d a0be 2c64 0a3e 9f89 e93d
00000040: c981 8bbb 313e 453e b83a 8dbd de13 75b9
00000050: 073d 9b3d accc 8e3c 9cc3 34be 99c4 d9bd
00000060: e603 b13d c579 be3d d2c3 9a3d 4c62 1e3c
00000070: e4f4 1fbd b86d bbbc 7fba 1fbe cc9e 473d
00000080: 7e32 ab3e ccc7 bc3e 0397 bebe af07 a9bc
00000090: ea37 033e a970 05be f3ce 983d e83f a5bd
000000a0: 3409 c9bd 84c0 67bd d215 7e3d 1d2c 5bbc
000000b0: b33e 093d 111d b13d 1e3e eebe 9cb8 373e
000000c0: b855 0c3e 25df 913e aba3 963d 03d9 243e
000000d0: 2a25 19be 4655 51bc fe53 303e 7cb3 bcbd
000000e0: a971 18be 7d8d 1f3d f7f1 373d 0b46 31be
000000f0: 1dbf 043f 9f85 493e eaa6 8a3d e560 71be
00000100: 279d e2bd 3d9a 0dbf c286 ad3c a386 45be
00000110: 855c 14be 349f 71be b990 923e e407 bd3e
00000120: 816d 85be bdec 603e 2b82 8f3e 8887 febc
00000130: bb7a 83bd 1118 653c e875 41bd 8d31 8a3c
00000140: 4998 533e eeea 363d ba29 a93d bb4b c03d
00000150: 3815 e939 5057 be3e fcf8 14be a149 30be
00000160: e52d 3c3e 8824 c93c 1212 0fbd fded 523e
00000170: c430 4fbe 6503 3a3e 1956 d43d 7092 6abc
00000180: 5b13 87be 88fa de3c bfa2 dd3e d0fa b43e
00000190: 5228 3dbe bedb 053e dc15 93bd eaae 133b
000001a0: ed46 f43b 41f0 1a3d abdd 53bd b440 1cbe
000001b0: 6b55 1a3e 8992 38bd 1775 de3d 069a c93d
000001c0: 19b0 0cbf 11cb 503e 5671 a4bd f8fd 7b3d
000001d0: 2515 313e fa12 a2bc ee51 8a3a 069f b0bb
000001e0: e2b1 403c 8081 82bd 2bdc 8abe 1429 963d
000001f0: b06d 2fbe 8875 a53e 9c99 413e 1818 42bc
00000200: e089 0b3e 1e49 56be 8663 223e 517b 2ebf
00000210: 4849 7b3e fb7b 043e 75ac 38be 83f2 5bbe
00000220: e0b4 1ebe f29c 653e 1722 cdbe 6660 1b3c
00000230: 7680 38be 5ffe db3d e26c 213e d3e9 e9bd
00000240: 849f 92bd 1972 13be 9caa 31bd 1da2 463e
00000250: 3e25 08be 4b22 a63c 80c0 c43d 3116 d93d
00000260: b495 2fbd 2681 613d e3f6 5f3e 68e5 b8bc
00000270: 8e6e 4a3d 0af9 d5bc cdc2 7abe a2d4 703e
00000280: 3754 523e dce8 ed3d b238 a1be 24a0 5f3d
00000290: 3f5d 2d3f a827 23be 80e1 e7bd e6b4 a6be
000002a0: fef3 8dbc 2c4e 52be 3511 cabe bc51 96bd
000002b0: 2258 bfbd fe60 3c3e a252 853e a058 ddbd
000002c0: 5159 2a3d 5354 a43d a2e4 28be 2c49 dd3e
000002d0: 633c 983e f38c c2bd 9d71 4fbe bfa2 153d
000002e0: d566 4c3d 8245 dbbd 4927 28be 5760 8cbc
000002f0: a42e e0bd 2ceb 813e 32d8 5b3e 50e9 373c
00000300: f63d c53e 7a29 43be f7d9 bbbd 3468 e5be
00000310: f085 2dbe 02c3 45bf aacf c93d 3e99 c4be
00000320: d238 adbe 54dd 54bd 9fa4 233e c627 763c
00000330: 5e29 f33d bb18 5abb cc5e d73d b93d ea3e
00000340: 15dc e13d baec 9bbd c0f5 273d 4b7b 3e3e
00000350: 0fdb 733e dd01 ab3e 824f a6bc 75c7 4c3e
00000360: 3c93 32be a69b 5cbe ee8a 09bd 9429 163d
00000370: e19a e8bd 52e3 c3bd f357 ac3d 96dc 94bd
00000380: 57eb 5bbd 5f04 62bd 1b96 0ebd d875 1a3e
00000390: e9a0 f23d f32d aabd 162b af3d 9f8f c43e
000003a0: b957 c7bd d062 893e d297 e5bb a32c 0cbe
000003b0: 8a18 d23d f16b 9cbe 3d26 8b3d 4062 47be
000003c0: 0f0b ec3d 3a03 073e 625f 19bd e8df 503d
000003d0: 857d e9be 0f42 353d ed35 c33c e380 973d
000003e0: 20e3 9f3d 3900 323e 89ab 7cbd 3243 773d
000003f0: 3d80 27bd 99fe 24bd 8b02 0cbd c5f6 7c3d

fc1.bias f4 [100]
0.10696947 -0.24479693 0.061645012 -0.4279473 -0.15608527 -0.44468725 -0.20327723 -0.2054387
-0.33297548 -0.2519236 -0.3885091 -0.44708306 -0.6328787 -0.080114745 -0.4137766 -0.2795583
-0.32658318 -0.44943604 -0.10216855 -0.087051645 -0.35983995 -0.35625285 -0.19668804 -0.08822772
0.10315549 0.07951242 -0.51153666 -0.45384654 -0.16703236 -0.23117068 -0.5318684 -0.4204873
-0.725035 0.25478822 -0.21640714 -0.046208136 -0.094619334 -0.3580928 -0.3317496 -0.13248962
-0.6107256 -0.24365282 -0.346469 0.2058639 -0.19127153 -0.24760407 -0.2253264 -0.464339
-0.19904204 -0.71506965 -0.8218903 -0.46244264 0.08419768 -0.30085588 -0.1944 0.043891568
0.051131207 0.083954 -0.20237154 -0.35698405 -0.3875677 0.07514155 -0.39019275 -0.18106717
-0.504595 -0.2675405 -0.36603585 -0.23595096 -0.39200136 0.094806544 -0.21152313 0.051530622
-0.5515461 -0.46518677 -0.21387118 -0.45389417 -0.33868623 -0.48633233 -0.4549466 -0.10770258
-0.5110058 0.49950916 -0.32278022 -0.001935662 -0.2493025 -0.24092019 -0.39276695 -0.087295584
0.01834032 -0.3960872 -0.32349008 -0.44561842 -0.6175961 -0.32410255 -0.1703629 -0.1035379
-0.14167877 -0.13165578 -0.48804668 -0.5808152
00000000: cf12 db3d 0cac 7abe 7b7f 7c3d e91b dbbe
00000010: d1d4 1fbe 0cae e3be e827 50be 865e 52be
00000020: c37b aabe 21fc 80be aaea c6be 12e8 e4be
00000030: 5704 22bf 3313 a4bd 87da d3be 4422 8fbe
00000040: e935 a7be 7b1c e6be bf3d d1bd 2248 b2bd
00000050: f13c b8be c666 b6be 9768 49be bcb0 b4bd
00000060: 2f43 d33d 68d7 a23d 11f4 02bf 935e e8be
00000070: 880a 2bbe 02b8 6cbe 8728 08bf 1d4a d7be
00000080: e59b 39bf 9a73 823e d599 5dbe be44 3dbd
00000090: c8c7 c1bd f157 b7be 15db a9be 5cab 07be
000000a0: 8358 1cbf 2080 79be 6364 b1be fccd 523e
000000b0: afdc 43be ec8b 7dbe f7bb 66be d7bd edbe
000000c0: add1 4bbe ce0e 37bf 6767 52bf 48c5 ecbe
000000d0: d56f ac3d c809 9abe cb10 47be a5c7 333d
000000e0: f56e 513d 13f0 ab3d 7c3a 4fbe 9dc6 b6be
000000f0: 466f c6be d0e3 993d 58c7 c7be ac69 39be
00000100: 232d 01bf 12fb 88be 0d69 bbbe 219d 71be
00000110: 67b4 c8be ef29 c23d 8599 58be c611 533d
00000120: 2032 0dbf f62c eebe 0c01 5bbe d164 e8be
00000130: 4868 adbe 8d00 f9be c3ee e8be 2c93 dcbd
00000140: 47d1 02bf aabf ff3e 7343 a5be 0ab6 fdba
00000150: 2849 7fbe c8b3 76be c018 c9be 07c8 b2bd
00000160: 703e 963c f1cb cabe 7ea0 a5be 1928 e4be
00000170: c71a 1ebf c5f0 a5be 9d73 2ebe ae0b d4bd
00000180: 3d14 11be c6d0 06be 41e1 f9be 4eb0 14bf

fc2.weight f4 [100, 104]
-0.2516447 0.04082836 -0.16393523 -0.25530142 -0.04330675 -0.05321258 -0.000565095 -0.013629287
-0.005494474 -0.26264128 -0.09287492 -0.007669679 -0.03180675 -0.26995867 -0.071988024 -0.18061125
0.003216247 -0.10694557 -0.14490114 -0.2932439 -0.18028057 0.14894992 0.06943155 -0.14064717
-0.074831754 -0.2439362 0.082207985 -0.5237299 -0.11076432 -0.1659014 -0.049666345 -0.09079557
-0.07555921 0.03278102 -0.007702848 0.09963018 0.08504063 -0.2199704 0.040173154 0.12146489
-0.1645797 -0.15011978 -0.04367234 -0.069354825 -0.09961216 -0.090104856 -0.26038432 -0.0673642
-0.22348726 -0.03246654 -0.18537818 0.07170826 -0.011639704 0.05628927 -0.28871477 -0.11798649
-0.20350279 0.0022739936 0.016345693 -0.13453187 -0.17790265 -0.023118341 -0.014412506 -0.19914861
-0.09422688 -0.0716075 -0.16320771 -0.0345324 -0.24384202 0.30063263 -0.06107113 -0.18213758
0.012401205 -0.31258157 -0.25249118 -0.01736679 0.08217432 -0.07551704 -0.34128025 -0.06369547
-0.15543829 -0.12999214 -0.28098154 -0.04295003 -0.23388647 0.06845714 -0.1877632 -0.26678857
0.109306246 -0.12971415 -0.10563165 -0.1387018 -0.11784714 -0.29655448 0.020460911 -0.23592354
-0.055867128 -0.18872514 -0.060108844 -0.21924578 -0.0063836295 0.014301625 0.029977022 -0.05176385
0.052613165 -0.033496574 -0.15001266 -0.10071806 -0.021490235 0.18043981 -0.00020898423 -0.27915928
-0.3161563 -0.3081207 -0.06338177 -1.0758594e-05 0.046267837 -0.25265718 -0.04195124 0.039306115
-0.22761208 -0.005538286 -0.19485019 -0.17286079 -0.16185701 -0.052554473 -0.10927077 -0.06572565
0.15188235 -0.07263153 0.044331484 -0.15454271 -0.24882062 -0.062714875 -0.35784894 0.0073070438
-0.110817224 -0.2282678 -0.06299048 -0.24066295 -0.12955533 -0.21348819 -0.112627484 0.13782364
-0.20337823 -0.2117428 -0.014874479 0.051052082 -0.15435553 -0.15607329 -0.03565725 -0.18378186
-0.14106704 -0.080299035 -0.06277022 -0.033487882 -0.20293933 -0.20948994 -0.2421839 -0.05354583
-0.13335519 0.13660674 -0.06110633 -0.11838533 -0.014301374 -0.18736638 -0.07752212 -0.241459
-0.13746664 -0.19340047 -0.12675604 0.011488521 -0.12158836 -0.0226188 -0.18314944 -0.043451793
-0.22333096 -0.029335286 -0.027315263 -0.14738752 -0.0005421171 -0.15731646 0.0037203198 0.035218615
-0.0060410113 -0.15837254 -0.043300312 -0.035225067 -0.0073226863 -0.12729384 -0.28741732 -0.10242934
-0.1106069 -0.037643902 -0.36594534 -0.12210616 0.11150761 0.050181102 0.048936523 -0.27729055
-0.3743929 -0.08740891 -0.005615581 0.026070068 -0.07256451 0.15009432 0.040320512 0.10740788
-0.076594435 -0.018536689 -0.051691215 -0.25648367 -0.16318122 0.090718485 -0.044768196 0.10132623
-0.09489299 0.02347722 -0.24049006 -0.12524483 -0.09875074 -0.103141315 -0.18388872 -0.09804093
-0.003909956 -0.06310492 0.007999886 -0.031059917 -0.06182227 -0.07905382 -0.07551811 0.02165364
-0.06429177 -0.07792484 -0.041546885 -0.11921637 -0.13636939 0.013220078 -0.11053688 0.1791393
0.09282824 -0.08010088 0.051518764 -0.00056107575 -0.039083775 -0.064402096 -0.07148582 -0.049563717
-0.043325655 0.0013538157 -0.13215402 -0.02198546 -0.08992081 -0.042195637 -0.19329396 -0.005973938
00000000: 93d7 80be a33b 273d a3de 27be deb6 82be
00000010: 6b62 31bd 6ff5 59bd e222 14ba 5f4d 5fbc
00000020: fd0a b4bb eb78 86be 3535 bebd ee51 fbbb
00000030: cb47 02bd 0638 8abe 756e 93bd 28f2 38be
00000040: acc7 523b 4706 dbbd f760 14be 1124 96be
00000050: 789b 38be 5486 183e 2132 8e3d d005 10be
00000060: 6441 99bd 69ca 79be a95c a83d 2a13 06bf
00000070: 67d8 e2bd 0ee2 29be f06e 4bbd 07f3 b9bd
00000080: c9be 9abd 6445 063d 2c68 fcbb e80a cc3d
00000090: c829 ae3d ec3f 61be 9b8c 243d 96c2 f83d
000000a0: 9587 28be 00b9 19be c5e1 32bd e709 8ebd
000000b0: 7601 ccbd e588 b8bd 1851 85be 3ef6 89bd
000000c0: d8d9 64be a2fb 04bd c7d3 3dbe c8db 923d
000000d0: 75b4 3ebc 948f 663d 6cd2 93be e7a2 f1bd
000000e0: 0963 50be 4807 153b 67e7 853c b9c2 09be
000000f0: 1d2c 36be ad62 bdbc 6e22 6cbc 9ded 4bbe
00000100: 06fa c0bd f4a6 92bd ec1f 27be d971 0dbd
00000110: b9b1 79be 85ec 993e b925 7abd 4682 3abe
00000120: 6c2e 4b3c b10a a0be 8646 81be cc44 8ebc
00000130: 034b a83d aea8 9abd 49bc aebe c572 82bd
00000140: 372b 1fbe a91c 05be d0dc 8fbe 5fec 2fbd
00000150: ef7f 6fbe 4233 8c3d ff44 40be 8398 88be
00000160: f4db df3d c9d3 04be 6855 d8bd d807 0ebe
00000170: d759 f1bd fdd5 97be a49d a73c f195 71be
00000180: eed4 64bd 2a41 41be b134 76bd f781 60be
00000190: c42d d1bb 5d51 6a3c 5f92 f53c 5506 54bd
000001a0: e780 573d b433 09bd eb9c 19be 4545 cebd
000001b0: 4a0c b0bc 37c5 383e c722 5bb9 f7ed 8ebe
000001c0: 3ddf a1be ffc1 9dbe 4dce 81bd cf7f 34b7
000001d0: 5883 3d3d 485c 81be 10d5 2bbd 73ff 203d
000001e0: 2413 69be 837a b5bb cf86 47be 6b02 31be
000001f0: d8bd 25be 5c43 57bd 5ac9 dfbd 2b9b 86bd
00000200: 0c87 1b3e d7bf 94bd ee94 353d 7240 1ebe
00000210: d5ca 7ebe a870 80bd fa37 b7be ed6f ef3b
00000220: 24f4 e2bd 09bf 69be 2701 81bd 5970 76be
00000230: 27aa 04be a69c 5abe 3da9 e6bd a421 0d3e
00000240: 6242 50be 1bd3 58be 16b4 73bc fd1b 513d
00000250: 600f 1ebe add1 1fbe 560d 12bd 5031 3cbe
00000260: e173 10be d273 a4bd ac8d 80bd 972a 09bd
00000270: 54cf 4fbe 8884 56be 0eff 77be df52 5bbd
00000280: 438e 08be a3e2 0b3e a24a 7abd 0274 f2bd
00000290: 4f50 6abc f9dc 3fbe ebc3 9ebd 0741 77be
000002a0: 0ec4 0cbe c60a 46be 56cc 01be 593a 3c3c
000002b0: 5103 f9bd 104b b9bc 878b 3bbe 82fa 31bd
000002c0: dfb0 64be 8e50 f0bc 42c4 dfbc c1ec 16be
000002d0: dd1c 0eba 9117 21be 9cd0 733b 6541 103d
000002e0: adf3 c5bb 692c 22be ab5b 31bd 2948 10bd
000002f0: 25f3 efbb 5159 02be 5d28 93be 79c6 d1bd
00000300: df85 e2bd 7e30 1abd 305d bbbe cb12 fabd
00000310: 1a5e e43d b38a 4d3d aa71 483d 07f9 8dbe
00000320: 6db0 bfbe 7103 b3bd e802 b8bb e590 d53c
00000330: b49c 94bd 53b2 193e 1f27 253d aaf8 db3d
00000340: 8bdd 9cbd 41da 97bc 2bba 53bd d451 83be
00000350: fa18 27be 9dca b93d db5e 37bd 2084 cf3d
00000360: 4257 c2bd 4d53 c03c 0743 76be 2e40 00be
00000370: d43d cabd c13b d3bd 534d 3cbe afc9 c8bd
00000380: 171f 80bb 273d 81bd f411 033c 5e71 febc
00000390: 5939 7dbd f8e6 a1bd 3da9 9abd f962 b13c
000003a0: 67ab 83bd 0f97 9fbd 112d 2abd b627 f4bd
000003b0: 6ba4 0bbe 0799 583c 2961 e2bd 4b70 373e
000003c0: bb1c be3d ee0b a4bd 5705 533d 2815 13ba
000003d0: 4f16 20bd 3fe5 83bd 2867 92bd 5303 4bbd
000003e0: 3e76 31bd 8472 b13a 6253 07be da1a b4bc
000003f0: 6728 b8bd 55d5 2cbd daee 45be 06c1 c3bb

fc2.bias f4 [100]
-0.10516927 -0.21322814 -0.1861487 -0.022170002 -0.14443633 -0.09584735 -0.15988271 0.28975126
0.28925842 0.08119904 0.018390844 -0.21768622 -0.023563705 0.2661971 0.53435427 0.31225345
-0.038175736 0.06599777 0.6952492 0.40664953 -0.032079924 -0.08590804 -0.29698431 -0.19822393
-0.12127955 -0.15816963 0.49621364 -0.625353 0.23392391 0.023329226 0.15261705 0.06752689
0.9235818 0.10229644 0.034369603 -0.29600045 -0.13113794 0.011801265 -0.21107219 -0.21847883
0.0019087639 0.25714567 -0.07495202 -0.341843 -0.09039817 -0.29806826 -0.12133522 -0.13988522
0.31858498 -0.5237634 0.16173796 0.7702675 0.31064874 0.34513596 0.13798817 -0.09732249
0.280359 0.08793147 0.23714532 0.029362481 -0.29259065 0.48055533 -0.47961083 -0.024781682
0.05696713 0.5553441 -0.2582414 -0.03309225 0.015648678 -0.07976802 0.16528098 0.056210075
-0.17668949 0.061783284 -0.14653894 -0.1074878 0.4424932 0.07445377 0.50327116 0.7056359
0.2107294 0.4208442 0.24433659 0.14872569 0.4449107 0.49531448 0.38900918 -0.13774647
-0.38627815 0.63648933 -0.38804463 0.2405846 0.031264044 -0.21162148 -0.01719391 0.2625315
-0.08127306 0.71658015 -0.17696579 -0.062634856
00000000: fc62 d7bd 7a58 5abe c49d 3ebe dd9d b5bc
00000010: 1ee7 13be 9e4b c4bd 4bb8 23be 475a 943e
00000020: ae19 943e af4b a63d 65a8 963c 23e9 5ebe
00000030: ac08 c1bc fc4a 883e 71cb 083f afdf 9f3e
00000040: 295e 1cbd d729 873d dafb 313f 5e34 d03e
00000050: 3d66 03bd 8ef0 afbd 540e 98be 37fb 4abe
00000060: 6a61 f8bd 38f7 21be b70f fe3e 2217 20bf
00000070: c089 6f3e ef1c bf3c a547 1c3e 8a4b 8a3d
00000080: db6f 6c3f cc80 d13d 24c7 0c3d 5f8d 97be
00000090: 0649 06be 185a 413c 4f23 58be eab8 5fbe
000000a0: 7d2f fa3a 99a8 833e 7280 99bd 0c06 afbe
000000b0: ad22 b9bd 679c 98be 9a7e f8bd 123e 0fbe
000000c0: 921d a33e 5c15 06bf a39e 253e 4030 453f
000000d0: 5a0d 9f3e a9b5 b03e c54c 0d3e 0351 c7bd
000000e0: 378b 8f3e 6a15 b43d 39d6 723e 9689 f03c
000000f0: 71ce 95be 590b f63e 8d8f f5be f402 cbbc
00000100: 5e56 693d 082b 0e3f 3738 84be bd8b 07bd
00000110: a831 803c 6a5d a3bd 6b3f 293e 893c 663d
00000120: 17ee 34be 7810 7d3d 4e0e 16be 9022 dcbd
00000130: 788e e23e 387b 983d 61d6 003f 8ea4 343f
00000140: 73c9 573e e478 d73e 5f33 7a3e 8c4b 183e
00000150: 56cb e33e dc99 fd3e 362c c73e 690d 0dbe
00000160: 40c6 c5be f7f0 223f c9ad c6be cf5b 763e
00000170: ba0e 003d 4db3 58be 3eda 8cbc 876a 863e
00000180: 7d72 a6bd cc71 373f 8536 35be b446 80bd

fc3.weight f4 [1, 100]
-0.03806135 -0.04121454 -0.032430332 -0.03313718 -0.015340714 0.0024983312 0.07005666 0.052334588
0.029672336 0.04416328 -0.013569271 -0.0064377165 -0.060558792 0.056439362 0.0522275 0.04137489
0.01363658 -0.033686865 0.039322596 0.054713245 -0.01298104 0.0018982776 -0.003840851 -0.055706024
-0.0990987 -0.0004576404 0.03056054 -0.0455731 0.06449015 -0.088142216 -0.11257902 -0.025287786
0.046725754 -0.019007266 0.03869123 -0.1051824 -0.07208975 -0.046945754 -0.036122218 -0.005521211
-0.06432289 0.07525619 0.036126226 -0.069128856 -0.057819933 -0.027213503 -0.002088696 -0.051403973
0.05106401 -0.022295713 0.032886997 0.048970085 0.058732536 0.050662294 0.03842757 -0.025393741
0.04392748 0.005586506 0.06205406 -0.054045416 -0.039284896 0.032519545 -0.011509016 0.051618584
0.026841806 0.056484878 -0.0027931726 -0.006166017 -0.17032914 -0.060121432 0.036488224 0.07409847
-0.09679152 -0.097624436 0.02893252 0.051600818 0.051812053 0.0430685 0.09305656 0.051012624
0.045598716 0.09317824 0.08188521 0.05518408 0.044885308 0.07161576 0.050699893 -0.018808447
-0.017268607 0.04095475 -0.017342614 0.056578446 0.038628012 -0.08028636 -0.051583473 0.04018139
-0.06487927 0.069757655 -0.019283973 -0.0961612
00000000: 38e6 1bbd 94d0 28bd abd5 04bd daba 07bd
00000010: 9e57 7bbc 0bbb 233b de79 8f3d cb5c 563d
00000020: 6613 f33c 8ee4 343d a651 5ebc 7bf3 d2bb
00000030: 7f0c 78bd f62c 673d 81ec 553d b778 293d
00000040: f66b 5f3c 3dfb 09bd bb10 213d ff1a 603d
00000050: 6eae 54bc a0cf f83a c9b6 7bbb 002c 64bd
00000060: 42f4 cabd 74ef efb9 195a fa3c dcaa 3abd
00000070: 6913 843d e883 b4bd d48f e6bd 5528 cfbc
00000080: 8163 3f3d 20b5 9bbc b27a 1e3d df69 d7bd
00000090: caa3 93bd 314a 40bd e4f4 13bd 46eb b4bb
000000a0: b8bb 83bd eb1f 9a3d 18f9 133d 6e93 8dbd
000000b0: 98d4 6cbd daee debc 81e2 08bb f98c 52bd
000000c0: 7f28 513d 80a5 b6bc 84b4 063d db94 483d
000000d0: 8791 703d 4483 4f3d 3a66 1d3d 8906 d0bc
000000e0: 4ded 333d 020f b73b 662c 7e3d ba5e 5dbd
000000f0: 33e9 20bd 3733 053d 5090 3cbc 026e 533d
00000100: 59e3 db3c b05c 673d a90d 37bb 4d0c cabb
00000110: c36a 2ebe e441 76bd ad74 153d f0c0 973d
00000120: a23a c6bd 52ef c7bd e403 ed3c 615b 533d
00000130: e038 543d 9868 303d 7094 be3d 9df2 503d
00000140: b8c5 3a3d 3cd4 be3d 6fb3 a73d b408 623d
00000150: a8d9 373d 49ab 923d b1aa 4f3d 2c14 9abc
00000160: e576 8dbc 2bc0 273d 1912 8ebc cdbe 673d
00000170: 6838 1e3d 2d6d a4bd 3149 53bd 3e95 243d
00000180: 6cdf 84bd 1add 8e3d 6cf9 9dbc 2af0 c4bd
