checkpoint.pth (torch_old, 57012 bytes, 5 tensors)

fc1.weight f4 [100, 33]
00000000: 531e b23e 108b 06bd 1504 013e 26d3 01bf
00000010: bc2a a6bb 37fd a43d 4970 803e 267e 81be
00000020: b244 883c d60f ae3c 5dd2 043e 784e 78be
00000030: 2ad5 a93d af5a 96be baf2 463e 62ce 7c3e
00000040: 08bb 443f a565 cabd a7ee 993d 6d58 2e3e
00000050: cf4e 1b3e 681a 3bbd dca3 89bc dac9 593e
00000060: 0057 b13d b6eb 853e ee69 763e b97f a63e
00000070: c865 4abe b86d bbbc bd69 f1be cc9e 473d
00000080: 8d1c 983f 767d 01bf 4de4 923e 7449 8fbe
00000090: 27e4 5ebe 619d 1fbf 2201 abbb 03f4 26be
000000a0: 5342 72be 4ead e3bd 9449 b1bd e733 96be
000000b0: 871d ea3d 4e85 033e 7f18 563e 7fa0 ab3c
000000c0: 04ac 3abe ac95 e63d 8e94 c33d 946c 84be
000000d0: e16a 7f3d 040f e0bd 3b62 0dbe 99aa 223e
000000e0: 7bbe 363d 99ca f4bd 2ca9 743d 0407 77be
000000f0: 3eb1 7e3f 4e1a 4c3e eaa6 8a3d b249 36bf
00000100: 279d e2bd 007f 74bf 1bd0 86bf 68ac 6ebb
00000110: 96ba 04bf 7944 b8be 9c41 2bbf fd32 68bc
00000120: 7c0a 83be 06d9 5e3e 822e c4bd c845 2dbe
00000130: 8c6c 54be cbcf b33d 747e f5bc 6d58 6d3e
00000140: d4a6 8039 e6ca 843d 74a4 44be 08a7 4f3d
00000150: ce5a 763c 4de5 763d 492e 8cbd c3bf 763d
00000160: 358c 9e3e 5c7b b93d 3c83 313d 2388 e7bc
00000170: c1e9 963d f0dd a13c b6e1 1abe 7092 6abc
00000180: d2ba d0bd 88fa de3c 1731 2abe a5c9 2d3e
00000190: d203 903e 2b49 193e 7cdf 05bf d51e 7dbe
000001a0: ecfc 8bbe 2279 81bd 706a 34be e370 093e
000001b0: 4f4e 3fbe 050a 24be c02c b5bd ae3d 203e
000001c0: d882 c1be 92e3 f63d 4f8d 3e3e c9fe 96be
000001d0: 6c61 12be 8a10 c43e e55a b1bc fa45 0abe
000001e0: eaae 1b3c e200 613e 61b1 13bd c273 ce3d
000001f0: 1e4c 123e 9e40 963e 7a6d 213f efcf e33d
00000200: e089 0b3e 0499 26bf 8663 223e e19b c63f
00000210: e88a 9e3d b0f1 e43e aceb 65be 6e15 11bf
00000220: d0cc c73d 55f5 c93e ade6 403e 8f31 693e
00000230: c7a2 d53d 7f9a 483e 195f 3d3c fda7 213d
00000240: dd51 bcbd 82f2 3b3e b7bc 36be 0442 a13c
00000250: f7df c2be b574 93bd cc96 ee3e cc53 533e
00000260: 0388 9cbd c493 cbbd 7ccc 96be a644 b23e
00000270: 82ff 46bc 0fe0 f8bd 32f5 4fbe 77f1 113f
00000280: 88fb 59be dce8 ed3d ed57 26bf 24a0 5f3d
00000290: 3418 983f 541a f83d fe29 cf3d 93ed 8fbe
000002a0: 2b1c a3bd 80de 383e 55fe f4bd 8fb3 ed3d
000002b0: 3953 c93d 04dc 3ebe 2409 d53d 8dca 83bd
000002c0: 4670 243d edfd 95bd 9a65 6dbe f48a 9cbc
000002d0: b504 b63b ad99 dfbc 8d95 b2be dde1 6fbe
000002e0: 8a89 e33d 88d3 523d 13b0 8d3d c292 8abd
000002f0: d620 30be 8481 81bd 2455 38be 5756 0abe
00000300: a012 e43e 5639 873d f7d9 bbbd 8f1e 02bf
00000310: f085 2dbe de8d 2740 dc13 65be 42ae 8bbe
00000320: ee08 6fbe e5fe 843d 0c63 3ebe bbd3 1abd
00000330: e2a3 18be dcb3 153e 7609 483e 59a3 913e
00000340: 9967 553d f026 d8bb 93f0 8a3c 6722 1f3f
00000350: fcdb a63e 3fa3 5f3d da01 1e3d 31f1 42bd
00000360: e805 083e b03d 603d c5fc 8abe c6e5 9b3c
00000370: 9db7 17bb 7c04 0e3e 818e 693c ea08 52bd
00000380: f875 bebe 7e3f a13e 6474 ef3d d875 1a3e
00000390: 8bd7 80be f32d aabd aa21 8fbf 9fb6 bd3e
000003a0: 58e3 a0be c657 ec3e eadc d63e e607 a13e
000003b0: 50c4 c5bc 2ebf 8abe 44de c13d 2917 33bd
000003c0: b42e ec3c d5fc c13d 9ae4 3e3a 4f6d 86bd
000003d0: 1aaf 43bd 180d 9f3d 436d 7dbe 4400 8d3c
000003e0: 35e2 763e e48c cabd d891 a8bc 173d 43bd
000003f0: 9ce5 1a3d 4d42 0cbe 6807 7cbd 7d9e 74bd
0.3478876 -0.032847464 0.12599213 -0.5071281 -0.0050710123 0.080561094 0.25085667 -0.25291556
0.016634319 0.021247786 0.12970872 -0.24248683 0.08292611 -0.2936606 0.1942853 0.24688104
0.7684789 -0.098826684 0.075162224 0.1702592 0.15166782 -0.04567948 -0.016801767 0.21268407
0.08659172 0.26156396 0.24063846 0.3251932 -0.19765389 -0.022879466 -0.47150984 0.048735425
1.1883713 -0.50582063 0.28689805 -0.27985728 -0.2176672 -0.62349516 -0.005218641 -0.1630402
-0.23658113 -0.111170396 -0.08656612 -0.29336473 0.11431413 0.1284382 0.20907782 0.020950554
-0.18229681 0.112590164 0.09549819 -0.2586409 0.062357787 -0.10940364 -0.13807003 0.1588539
0.04461525 -0.11952705 0.059731647 -0.2412377 0.994892 0.1993191 0.067701176 -0.712062
-0.11065131 -0.95506287 -1.0532259 -0.003641868 -0.5184721 -0.3598974 -0.66896987 -0.014172313
-0.25593936 0.21762475 -0.09579183 -0.1692115 -0.20744532 0.08779868 -0.029967524 0.23178263
0.0002453836 0.06484012 -0.19203359 0.050696403 0.015036298 0.060277272 -0.06844766 0.060241472
0.30966344 0.09056732 0.043338045 -0.028263157 0.07368804 0.019759148 -0.15125164 -0.01431714
-0.10191883 0.027219072 -0.16620289 0.16971453 0.28127915 0.14969318 -0.52294135 -0.24718793
-0.27341402 -0.063219324 -0.17618728 0.13421969 -0.18682216 -0.16019447 -0.08846426 0.15648529
-0.37795138 0.12055124 0.18608592 -0.2949126 -0.14294976 0.38293868 -0.021649787 -0.13503256
0.009502152 0.21972993 -0.036057834 0.10080673 0.14286849 0.29346174 0.6305767 0.111236446
0.13626814 -0.65077233 0.15858278 1.551632 0.07741338 0.44715643 -0.22453183 -0.56673324
0.09755862 0.39444986 0.18837996 0.22772811 0.10431438 0.19590186 0.011558318 0.039466847
-0.09195302 0.18354228 -0.17845426 0.019684799 -0.38061497 -0.071999945 0.46599424 0.20637435
-0.0764313 -0.099402934 -0.29452884 0.34818 -0.012145879 -0.12152111 -0.20308378 0.5700907
-0.21287358 0.1161668 -0.64977914 0.05459608 1.1882386 0.12114397 0.10115431 -0.28110942
-0.07964357 0.18053627 -0.119625725 0.11606514 0.098303266 -0.18638617 0.10402134 -0.06435118
0.040146135 -0.07323823 -0.23183289 -0.019109227 0.0055547603 -0.027294958 -0.34879723 -0.23426004
0.11110218 0.051471263 0.06918349 -0.06766273 -0.17200026 -0.06323531 -0.18001229 -0.13509499
0.4454546 0.06602733 -0.09172433 -0.5082788 -0.16945624 2.618034 -0.22370857 -0.27281386
-0.2334325 0.0649393 -0.18592471 -0.03779958 -0.14906266 0.14619392 0.19534859 0.28444937
0.05210075 -0.0065964386 0.016960418 0.6216187 0.3258971 0.054599043 0.038575985 -0.0475933
0.13283503 0.05474633 -0.27145973 0.019030463 -0.0023150214 0.13868898 0.014255167 -0.051278032
-0.37199378 0.31493753 0.116921216 0.15084016 -0.25164446 -0.08309545 -1.1182148 0.3705339
-0.3142345 0.46160716 0.4196542 0.3145134 -0.02414146 -0.27098984 0.09466222 -0.04372326
0.028830864 0.09472052 0.0007281989 -0.06563818 -0.04777441 0.07766169 -0.24748711 0.01721204
0.24109729 -0.09890154 -0.020577356 -0.04766568 0.03781663 -0.13697167 -0.0615305 -0.05972146

fc1.bias f4 [100]
00000000: ad91 55be 3f9c 38bf e1e7 643e 8495 5ebf
00000010: ed62 fbbe 7d41 01bf 30c9 12bf 40c2 9e3e
00000020: 0493 a8be 79ba 35be 4eb3 6fbf 1bc5 433f
00000030: cbf3 36bf b8a6 87be c13c e7be 3ac0 46bf
00000040: 09e9 3dbf e930 abbe a218 d23e c266 57bf
00000050: aafc ac3e e7ae 30bf ab9e 02bf ff6a 2abf
00000060: 89e3 57bf 495b d2be bfb3 28bf 4934 2fbf
00000070: 70bd 3dbe d62c 43be 8fdd 8d3e 38f2 0dbf
00000080: 53ac 31bf 3082 20bf e22e 54be 919c a3be
00000090: 4bce 46bf 5d43 a9be 5813 13bf b2f4 d9be
000000a0: 8df6 29bf 18c0 19bf 137a 1cbf b127 d8be
000000b0: 4ab4 ecbe 6fd4 0ebf c011 1cbf d45c 13bf
000000c0: 8efc 9bbe ce2a 07bf b512 45bf ac0c 5bbf
000000d0: b446 4fbe b814 32be c873 1abf 8958 f0be
000000e0: 824b 13bf c8f5 1abe 9d34 17bf 3e7f 2dbf
000000f0: 522a 26bf 735e 2abf 6cfb 35bf 871a 70be
00000100: 4e66 d8be 7781 26be 03b8 71bf 8140 8bbe
00000110: 0a03 e5be 9c00 debe a8e4 00bf fda7 f1be
00000120: b5fd 75bf 1f1a 00bf 05a1 e1be 634f bcbe
00000130: 9074 39bf efd8 2fbf 75cc 0cbf fc64 5cbf
00000140: 6e84 40bf 4160 143f 610d a9be dac9 82be
00000150: 065c 40bf 87c4 1abf e144 02bf 6854 79be
00000160: 16c2 25be 71dc f4be 4859 0ebf b53a 4abe
00000170: 1639 5ebf 1196 a5be 016e 54be cb23 32bf
00000180: 31cd 4fbf 7fc8 8dbe 9643 8abf efb4 2bbf
-0.20856352 -0.7211341 0.2235408 -0.8694689 -0.49098912 -0.5049055 -0.5733824 0.31007576
-0.32924664 -0.17746915 -0.9363297 0.76472634 -0.7146575 -0.26494384 -0.4516354 -0.77637064
-0.7418371 -0.33435753 0.41034418 -0.8414117 0.33786517 -0.6901688 -0.5102336 -0.66569513
-0.84331566 -0.4108527 -0.6589927 -0.68439156 -0.18529296 -0.19060072 0.27708098 -0.5544772
-0.6940357 -0.6269865 -0.2072101 -0.31955388 -0.7765853 -0.33059207 -0.5745139 -0.425695
-0.6639183 -0.60058737 -0.6112377 -0.42217782 -0.462313 -0.557929 -0.60964584 -0.5756352
-0.3046612 -0.5279969 -0.7698167 -0.8556621 -0.20241815 -0.17390716 -0.6033292 -0.46942547
-0.5753709 -0.1513282 -0.59064656 -0.6777228 -0.64908326 -0.6655037 -0.71086764 -0.2344762
-0.42265552 -0.16260324 -0.94421405 -0.2719765 -0.4472888 -0.4335984 -0.503489 -0.47198477
-0.9609025 -0.5003986 -0.4406816 -0.36779317 -0.72443485 -0.6869039 -0.54999477 -0.8609159
-0.7520207 0.5795937 -0.3301802 -0.25544626 -0.75140417 -0.60456127 -0.5088635 -0.24348605
-0.16187319 -0.47824433 -0.5560498 -0.19748957 -0.86805856 -0.32341054 -0.20745088 -0.69585866
-0.8117247 -0.2769203 -1.0801876 -0.6707296

fc2.weight f4 [100, 104]
00000000: 1a57 d6be 596f edbd b8e3 0ebf 94df 05bf
00000010: 4e5b b6be 3599 993d d0c5 03bf b6d0 8c3e
00000020: a92f 6abe 8c13 7b3d 2cbe 4fbe 43f5 bebe
00000030: 20d9 493e aa13 bbbc 93b4 f63d ed8f a1bd
00000040: 67c2 d43c 5caf 87bf 2396 cbbe 94bd e4be
00000050: 2ac3 46bd bebd 29bf a3e1 a8be 8822 c7be
00000060: 8c56 df3d 5620 c9be fd47 afbd 9e51 68bd
00000070: e3b6 2c3e 1fb1 94bf 8b11 1bbf 0148 973d
00000080: c88e 3ebe 68e2 65be 8b6e c7be 46a3 2abf
00000090: 638b 28bf fcfa 003d 9524 073d ae05 4ebc
000000a0: 292e 4abd 43fc d63c 84bd 45bf 5f5b 96bf
000000b0: 0b9d b1bd 13e1 4a3e d864 a8be 36b5 22be
000000c0: d493 2bbf f02c fabe 1508 86bd ab2e f2be
000000d0: c08d 8b3d d51f 32be a7ff c23e 201d d63e
000000e0: 0b71 62bd 1ba8 973e e938 8cbd 6db3 1e3f
000000f0: 9d25 413e 193e 2cbd 63eb 153d e861 97be
00000100: 28da ebbd 048a 6cbe 3a0d 0dbe a6aa 22bf
00000110: 3ac1 a3bd 0764 d03e 586a 8cbd 3da7 ec3d
00000120: aa16 d8bd 4e49 173d 41ce 2ebf ceab 94bf
00000130: f9d6 51bf 28c2 97be 8b04 f03d 3b74 85be
00000140: fb58 c8be 4b39 113e 6f92 99bf 143f 72be
00000150: 25f8 e8be 7d35 e03e f6e2 71be d5a7 8a3b
00000160: 3943 4d3e a8cf 02bf a746 b4bd 8456 5bbe
00000170: 3dcd 0bbf 5c66 92be e8bd 723e d3f8 41bd
00000180: c932 5cbb f7fc 4bbd cff3 2ebd baea 2cbf
00000190: cf56 783e e656 233d b12d f63d f8ed 403d
000001a0: e0d8 1cbf acb2 49bf b7bb acbd 8c49 94be
000001b0: 6e84 18bf 5aa0 583e 1fc0 03bf 545b 24bd
000001c0: b822 e9be e73c f93d 3d7f 39bd 74d4 a0be
000001d0: 582c 9d3e 4a5e 063d abc1 5cbf b2ce d3be
000001e0: 9360 09bc 5534 61bf b527 a1be a2b8 073f
000001f0: 07c0 d8be b663 a7be 4793 3e3d dd89 7ebd
00000200: 6798 a53c bbc1 59bf f3ae 983e 8590 44bf
00000210: 963e 22be 606d 82be 51d2 d73e c79a b2be
00000220: 696b 1ebe 194c 09bf 4bbe 363f 9045 60be
00000230: f6a3 403d 48ed 11bf c4ff a4bd 1538 49be
00000240: d2fe ffbc 6d14 3fbd acb4 cd3d dd3b c3be
00000250: 5d9d 4cbf 25df 84bf f4e7 5a3e e579 8cbe
00000260: a900 4bbf 22cf aebe 6fa2 65be b9bd ad3e
00000270: 7d78 90be cfc0 023f 6c95 bbbe e99c 0e3e
00000280: be5d f3bc c383 f4be f59d e3be c4d6 4abc
00000290: cb79 d0be aa5d 3dbe 4ef4 30bf a14a d5be
000002a0: d2d3 b23d b605 1d3f 5d61 7cbd a21f 43bf
000002b0: 282d e6bd 9e15 27bf 0f60 c8be 968d 2fbe
000002c0: 6c47 82be e2f6 4c3f 7996 bdbb f1e8 84bf
000002d0: 0021 3ebf 7306 04be d642 b83e ef8e 1bbe
000002e0: 1685 0ebf 449c 743e 35ba 96bf ed5b 213f
000002f0: d787 19bf e837 8cbe c209 71bd 5efd d23e
00000300: c068 93bf caf6 bbbc 5a7f 1dbf a3f2 af3e
00000310: ab08 883d 72b6 18bc 8085 01bf 2345 d4bc
00000320: b6a1 f1be ae8d 6abd 6447 00bf 9520 32be
00000330: 435d 213d ba44 86bd 1aa7 17bf 3119 eebe
00000340: 9eb4 c03d acb2 38be 9357 9dbe 84bd 43bf
00000350: 6767 b9be c42c a3bd 6cfc a8be ec8c 283e
00000360: 6913 f5be bbcd 9abf 6714 31bf 52dd b33d
00000370: 17f3 a1be 925a c2bd 9ef9 f5be e06a 1bbf
00000380: 42ec 11bf 9fc7 353d f32f a13d 5416 763d
00000390: c114 6d3e 782c 8ebf 09e6 dcbe 1d07 52bf
000003a0: fb04 d23e 6a4d 71bf 4b39 5e3d 98c9 00bf
000003b0: c079 453e 6021 ccbe 782a cb3e db34 d83d
000003c0: 8f68 7bbe 72e9 86be f59c f2be c465 90be
000003d0: 7357 ec3d a935 553e 35c6 2e3e 40db a73d
000003e0: faa9 8a3d 8851 053f 36bd dbbe 27d3 27be
000003f0: 768d b93e b07c a9bd 5992 fcbe 5061 e1be
-0.41863328 -0.115935035 -0.5581622 -0.5229428 -0.35616535 0.07499925 -0.5147371 0.27502984
-0.22869743 0.06129794 -0.20287389 -0.37296495 0.19711733 -0.022836525 0.120461605 -0.0788878
0.025971605 -1.060039 -0.39762983 -0.44675887 -0.048525967 -0.6630515 -0.32984647 -0.38893533
0.109051794 -0.39282483 -0.085586525 -0.05671846 0.16866641 -1.1616553 -0.60573643 0.073867805
-0.18609154 -0.22449648 -0.38951525 -0.66655385 -0.6583769 0.031489357 0.03299387 -0.012574596
-0.049360428 0.026243335 -0.772423 -1.1746634 -0.08672532 0.19812422 -0.32889438 -0.15889439
-0.6702244 -0.4886241 -0.0654451 -0.4730123 0.06814146 -0.17394955 0.38085672 0.41819096
-0.055283587 0.29620442 -0.06846792 0.6199253 0.18862005 -0.04205141 0.036601435 -0.29566884
-0.115162194 -0.23099524 -0.13774577 -0.6354164 -0.079958394 0.40701315 -0.06856221 0.11555336
-0.10551198 0.036935143 -0.6828347 -1.1614931 -0.8196865 -0.29640317 0.117196165 -0.2606524
-0.39130387 0.14182012 -1.1997813 -0.23656875 -0.4550182 0.43790808 -0.23621735 0.004231433
0.20045175 -0.5109811 -0.08802538 -0.21419722 -0.54610044 -0.2859372 0.23705256 -0.047356438
-0.0033599606 -0.049801793 -0.042712983 -0.67545664 0.24251865 0.039877795 0.12020434 0.047101945
-0.61268425 -0.78788257 -0.08434241 -0.28962362 -0.5957707 0.2115492 -0.5146503 -0.04012616
-0.455343 0.12169819 -0.04528736 -0.3141209 0.30697894 0.032804765 -0.86233014 -0.41368634
-0.0083848415 -0.8797048 -0.31475607 0.530161 -0.42334005 -0.3269326 0.046527173 -0.062143195
0.020214273 -0.85061234 0.29820976 -0.7678302 -0.15844187 -0.25474072 0.42152646 -0.3488371
-0.15470661 -0.5363174 0.71384114 -0.21901536 0.047031365 -0.5700269 -0.08056596 -0.196503
-0.031249437 -0.04665034 0.10044226 -0.3813161 -0.7992762 -1.0380598 0.21377546 -0.27436748
-0.7929788 -0.34142405 -0.22425245 0.3393381 -0.28216925 0.5107545 -0.36637437 0.13927044
-0.029707786 -0.47756776 -0.4445645 -0.012380306 -0.4071792 -0.18492761 -0.6912278 -0.416585
0.08731808 0.6133684 -0.06161629 -0.7622014 -0.112390816 -0.6526736 -0.39135787 -0.17143854
-0.25445116 0.80064213 -0.00578576 -1.0383588 -0.74269104 -0.12893085 0.35988492 -0.15191244
-0.55671823 0.23887736 -1.1775576 0.6303089 -0.599729 -0.27386403 -0.058847196 0.4120893
-1.1516342 -0.022944827 -0.6152245 0.34364805 0.06642278 -0.009320842 -0.5059433 -0.025911873
-0.47193688 -0.057264023 -0.50108933 -0.17395242 0.039395582 -0.06556077 -0.5923935 -0.46503595
0.0940945 -0.18036908 -0.30730876 -0.7646105 -0.36211702 -0.07967523 -0.33005083 0.16460007
-0.4786637 -1.2094034 -0.69171757 0.08782448 -0.31630775 -0.09489931 -0.48042005 -0.60709953
-0.57001126 0.044379827 0.07870474 0.060079888 0.23152448 -1.1107321 -0.43144253 -0.82042104
0.41019425 -0.9425875 0.054253858 -0.5030761 0.19284725 -0.39869213 0.3968084 0.105569564
-0.24551605 -0.2634998 -0.47385374 -0.2820264 0.11540117 0.20821251 0.17067797 0.081961155
0.06770702 0.5207753 -0.42917794 -0.16389142 0.3624074 -0.082757354 -0.49330404 -0.44019556

fc2.bias f4 [100]
00000000: e69f b4be 2f81 c0be 84b6 57be 2463 7fbc
00000010: e828 eabd b509 e7bd ba7b efbd ca5f 6e3e
00000020: d728 1a3f 5ea9 d5bd 58b8 823f b03a 31be
00000030: d9a1 cebd 9bf9 9c3d a024 a43f 7581 9d3f
00000040: f75e 7abd 53c7 073f 1159 253f 186b 0c3f
00000050: 6901 9e3e 62e0 5cbe 8975 c8be bcaa f7be
00000060: bdb0 42be 9ab8 9abe 5cd5 a33f 1025 29bf
00000070: ffb9 d63e fec5 f8bd e741 3fbe 433d 053d
00000080: 216e 433f 5acf f53e 14c7 113f 2538 c83e
00000090: c800 14bf 1643 f1bd e1be 99be 2317 10bf
000000a0: e651 c9be 5295 393e d56c c5be c748 4bbf
000000b0: bbfd 42bd e810 44bf 2c38 3b3f bb8a e63c
000000c0: a151 2ebe 3d51 92be afab 1a3f f2ab 843f
000000d0: 9ea2 d03e b051 f33e 1bfa e2bd 5475 80be
000000e0: 17d9 eb3e c268 2abf 074f 653f 4475 6b3f
000000f0: 1203 97be 40dc 903f cf15 a5be 2fc7 50bd
00000100: 8a20 c23e 84e5 8a3f 00a4 41be 9c74 2abe
00000110: 440b f5bd 7b93 28be bee7 1b3f b905 d13e
00000120: 44d6 febe 5585 8ebe 826c 50bf 5722 94be
00000130: 4745 de3e 325f a13e 6dca 993f d92d 9e3f
00000140: 2366 f1be f4d1 de3e c932 d13e 3ee5 183f
00000150: 70ca 713f 1870 113f 5043 3d3f 25c2 233f
00000160: ca8e eabd f9d0 163f 0dfa d0be 529c d93e
00000170: 5bbd 863f 85c9 48be a1ba 95be fef8 843f
00000180: 4396 5abe e309 f73f 0293 f13d 2ce3 f3bd
-0.35278243 -0.3759856 -0.21065718 -0.015587602 -0.114335835 -0.11281148 -0.11693521 0.23278728
0.60218567 -0.10432695 1.0212507 -0.17307544 -0.10089464 0.07664796 1.2823677 1.2305132
-0.06112572 0.5303852 0.6458903 0.5485091 0.3086045 -0.2156997 -0.39152172 -0.48372447
-0.19012733 -0.30218965 1.2799487 -0.6607218 0.4193878 -0.12147139 -0.18677483 0.032529127
0.7633992 0.4800976 0.56944394 0.39105335 -0.5781369 -0.11780374 -0.30028442 -0.56285304
-0.39320296 0.18123367 -0.38559595 -0.79407924 -0.047605257 -0.76588297 0.73132586 0.028142324
-0.17023326 -0.28577605 0.6041822 1.0364974 0.40749067 0.4752326 -0.1108286 -0.25089514
0.46064064 -0.665661 0.8957371 0.9197581 -0.2949453 1.1317215 -0.322432 -0.050971206
0.3791545 1.0851293 -0.18910217 -0.16646045 -0.11965039 -0.1646251 0.60900486 0.4082468
-0.49772847 -0.278361 -0.8141557 -0.2893245 0.4341223 0.3151794 1.20149 1.2357742
-0.47148237 0.43519557 0.40859058 0.59724796 0.9444952 0.56811666 0.73930836 0.63968116
-0.11453016 0.58912617 -0.40815774 0.42502075 1.0526537 -0.19608124 -0.2924395 1.0388486
-0.21346383 1.9299892 0.11795618 -0.11908564

fc3.weight f4 [1, 100]
00000000: ae08 63bb c22d 18bd b9b1 1bbd c785 a8bc
00000010: 8ab0 70bc a0f0 723c 4d24 24bd 841d 783c
00000020: de10 443d 6539 1d3d b301 f53c 4eb9 39be
00000030: 0262 20bd 6cad f0bb ad4d 453d 4e22 673d
00000040: b905 50bd 97da 6f3c 4de7 18bd 9123 183d
00000050: 0760 25bd f1ea 663d 8d1c 11bd 1b10 9fbd
00000060: d1f9 6dba 7b6e 4dbe 0369 f13d 6e0c 6bbd
00000070: 5ea9 e93c 99ed 0cbb 6105 92bd f676 863d
00000080: 8d87 df3c 0d61 813b 622e 2dbd db0c db3c
00000090: 68db 3b3a 0fec 79bc 169d b93c 1ea2 fbbd
000000a0: 75a1 b5bd 5a08 243d bbec ce3b a6fc 8abd
000000b0: df06 d83b 029f b33a 84ed f23c 4c6d 523d
000000c0: e45e b73d a83e b1bc 15cb b63c ddec 153c
000000d0: 9f70 a73d 8823 bb3d 8384 863d d157 eabc
000000e0: e987 403d 9044 b83c cd5a dc3c be10 183d
000000f0: 342b bdbc c69f ab3d c4dd 0bbd c96b a5bd
00000100: 1c31 a23d 1a89 533d a135 4abe e780 e0bd
00000110: 9499 6ebd 84ab fbbc e0d2 063d e40e fd3c
00000120: ac3d 18bd d4af 713c 8782 49bd be88 42bd
00000130: 4651 c93c f30c aabb f319 a73d cff2 d63d
00000140: 895a 89bd 2c63 35bd 9d6d 53bd d9ca 923b
00000150: eb79 b03c ad89 ff3c 73cd c53c 6fde 4d3d
00000160: 700b 47bc 61f2 723d 1080 7ebc 3286 473d
00000170: a7a6 8a3c f06f ee3d cf62 aabd 503b 543d
00000180: 9b22 983c c321 853e d65e 62bc e559 0ebd
-0.0034642625 -0.037153013 -0.038011286 -0.020571603 -0.014690528 0.014827877 -0.04007368 0.015143756
0.04786765 0.038384814 0.029908037 -0.18137094 -0.039155968 -0.0073448922 0.04816978 0.0564292
-0.050786708 0.014639518 -0.03732996 0.037143294 -0.040374782 0.0563764 -0.03542762 -0.07766744
-0.0009078058 -0.20061676 0.117876075 -0.0573849 0.028523143 -0.0021503924 -0.07129932 0.06565659
0.027286315 0.003948337 -0.042280562 0.026739528 0.0007166178 -0.015254035 0.022657912 -0.12286781
-0.08868686 0.040047027 0.0063148416 -0.0678647 0.006592616 0.0013704004 0.029654272 0.051373765
0.08953646 -0.021636322 0.022313634 0.009150711 0.08175778 0.091376364 0.06568243 -0.028606327
0.047004614 0.02249363 0.026898766 0.03712534 -0.02309189 0.08380084 -0.03414704 -0.08077199
0.07919523 0.051644422 -0.1974702 -0.10962086 -0.058251932 -0.030721433 0.03291595 0.03089089
-0.03716819 0.014751393 -0.049196746 -0.04749369 0.024574887 -0.005189532 0.08159246 0.10495531
-0.06706721 -0.04428403 -0.051618207 0.0044797477 0.02154251 0.031193579 0.024145817 0.050260957
-0.012148723 0.05931318 -0.015533462 0.048711963 0.01692517 0.11642444 -0.083196275 0.051814377
0.018571189 0.2600232 -0.013816556 -0.0347537
