checkpoint_policy.pth (torch_old, 56625 bytes, 6 tensors)

fc1.weight f4 [100, 33]
0	0x3da5de80	0.08099079
1	0x3e189367	0.1489998
2	0xbef1b218	-0.47206187
3	0xbd6688c3	-0.05628277
4	0xbf062b4f	-0.52409834
5	0x3e3e2bfa	0.18571463
6	0xbf33abe2	-0.7018415
7	0x3ddef2dc	0.108861655
8	0xbea1b5c1	-0.3158398
9	0xbe4a80b1	-0.19775654
10	0x3dccc199	0.09997863
11	0xbc7c8b91	-0.015414135
12	0x3dea4740	0.11439371
13	0xbeabfad3	-0.335898
14	0xbf1f61af	-0.6225843
15	0x3f47ada9	0.7799936
16	0x3e3187ff	0.17337035
17	0xbdfae937	-0.122515135
18	0x3e1bac18	0.15202367
19	0xbf02d043	-0.5109903
20	0x3d761242	0.060076006
21	0xbea78cba	-0.32724553
22	0x3e34a592	0.17641285
23	0x3dfa0032	0.122070685
24	0xbe481b50	-0.19541669
25	0x3e25f5ac	0.16206998
26	0xbdb46794	-0.088088185
27	0x3dfdaa26	0.12385969
28	0xbe57aa4f	-0.21061061
29	0xbcbb6db8	-0.022879466
30	0xbe8a556f	-0.27018306
31	0x3d479ecc	0.048735425
32	0x3e908cc1	0.28232387
33	0xbe52b0fc	-0.20575327
34	0x3ebe159e	0.37125868
35	0x3e49a228	0.19690764
36	0x3e198761	0.14993049
37	0x3e917695	0.28410783
38	0x3e590df1	0.21196724
39	0x3e22dec2	0.15905288
40	0x3b0abe1d	0.0021170445
41	0x3d9e486a	0.07728656
42	0xbe137cf4	-0.14403135
43	0xbdff8f89	-0.12478549
44	0xbc818235	-0.015809158
45	0x3ee62ae3	0.44954595
46	0xbe8455b0	-0.25846624
47	0x3e4c0128	0.19922316
48	0xbd4977df	-0.049186584
49	0x3e8cffd2	0.27538925
50	0x3eb826eb	0.35967192
51	0xbe9efacf	-0.31050727
52	0x3e540f85	0.20709045
53	0xbf4ac484	-0.7920611
54	0x3da17e89	0.07885463
55	0x3e87cb82	0.26522452
56	0xbcf07e30	-0.029357046
57	0xbe3e3ae4	-0.18577152
58	0x3ee3fd98	0.44529414
59	0xbe09c81e	-0.13455245
60	0x3d87cf82	0.06631376
61	0x3e8f2d45	0.27964225
62	0x3d8aa6ea	0.067701176
63	0x3e5db288	0.21650136
64	0xbde29d27	-0.11065131
65	0xbfce90f9	-1.6137992
66	0xbf6e3ebb	-0.9306447
67	0x3dadebaa	0.08492215
68	0xbea61161	-0.32435134
69	0xbe2150e7	-0.15753518
70	0xbea710a8	-0.32629895
71	0xbd7bdc0c	-0.06148915
72	0xbe85ef3d	-0.26159087
73	0xbeef2490	-0.46707582
74	0xbe20a9a6	-0.15689716
75	0xbd229075	-0.039688546
76	0xbe1e0182	-0.15430263
77	0x3de89664	0.1135681
78	0xbd82a272	-0.0637864
79	0x3da574d5	0.080789246
80	0x3e761646	0.24031934
81	0x3f03fe39	0.5155979
82	0xbd752c82	-0.0598569
83	0x3ceb62d4	0.028733648
84	0x3da03472	0.07822503
85	0x3de193f2	0.110145465
86	0xbdc237f1	-0.09483326
87	0x3ce2ae07	0.027670873
88	0x3e17e38b	0.14832895
89	0x3e5aa42b	0.21351688
90	0x3e1d64fb	0.15370552
91	0x3e8a12dd	0.26967517
92	0xbda958d3	-0.08268895
93	0x3ee1df5f	0.4411573
94	0x3ec58e6d	0.38585225
95	0xbc6a9270	-0.01431714
96	0xbf05f8a8	-0.52332544
97	0x3cdefa88	0.027219072
98	0xbf60c720	-0.8780384
99	0x3f0d77f2	0.5526115
100	0xbe0ae187	-0.13562594
101	0x3e4b141f	0.19831894
102	0x3da326de	0.07966398
103	0xbea658bc	-0.32489574
104	0x3daf32f1	0.08554638
105	0xbe8cf476	-0.2753026
106	0x3ed05106	0.40686816
107	0xbf3a4abe	-0.727703
108	0x3eb43768	0.35198522
109	0x3d87c5aa	0.06629498
110	0xbed18dd7	-0.40928528
111	0x3d2c7e2c	0.042112514
112	0xbf3b291b	-0.73109597
113	0x3e0e6c15	0.13908418
114	0xbed21be9	-0.4103692
115	0xbc420588	-0.011842139
116	0xbd93eee9	-0.07223303
117	0x3cfa7bc5	0.030576596
118	0xbe9f4b57	-0.31112167
119	0xbd63ef04	-0.055647865
120	0x3d662ffe	0.056198113
121	0x3e7cd613	0.24691038
122	0xbe4c043f	-0.19923495
123	0xbe058ca6	-0.13041934
124	0xbde9769e	-0.113995776
125	0x3ece28c7	0.40265486
126	0x3e8dcf1b	0.2769707
127	0x3e016ccd	0.1263916
128	0x3e0b89e0	0.13626814
129	0xbe9826e7	-0.2971718
130	0x3e226386	0.15858278
131	0x3f985784	1.1901708
132	0x3e87b7f5	0.26507536
133	0xbe1923fe	-0.14955136
134	0xbbf70395	-0.007538269
135	0xbd9bcaae	-0.076070175
136	0x3cf657ed	0.030071223
137	0xbc1b8117	-0.009491227
138	0x3e3ef57b	0.18648331
139	0x3e0f1596	0.13973078
140	0xbe8abac9	-0.2709563
141	0x3dbad6cc	0.091230005
142	0xbe4449d8	-0.19168794
143	0xbe89f0bd	-0.2694148
144	0x3cdcd097	0.026954932
145	0xbecff9bb	-0.40620217
146	0x3e501f88	0.20324528
147	0x3dbf0c72	0.09328546
148	0xbe2e1db8	-0.17003524
149	0x3e00af9c	0.1256699
150	0xbe51aff0	-0.20477271
151	0x3e99c334	0.3003174
152	0xbe2f72b0	-0.17133594
153	0xbe418d85	-0.18901642
154	0x3c8371a7	0.016045405
155	0xbe4b6b0e	-0.19865057
156	0xbe2e9691	-0.17049624
157	0xbd1f483e	-0.038887255
158	0xbf02ca34	-0.5108979
159	0x3d92e1bc	0.07171962
160	0x3f087f1d	0.5331896
161	0x3dede8dc	0.1161668
162	0xbe1b0cd7	-0.15141617
163	0x3d5fa024	0.05459608
164	0x4021bdfb	2.5272205
165	0x3d8d39d0	0.068957925
166	0xbe93ae4c	-0.28843915
167	0xbf07f0a4	-0.53101563
168	0xbe61d34a	-0.22053257
169	0xbee48b53	-0.44637546
170	0xbe63d490	-0.22249055
171	0xbef8bd87	-0.48582098
172	0x3e104af8	0.14091098
173	0xbf35b5bc	-0.7098043
174	0x3d37b04f	0.044845875
175	0x3e882010	0.26586962
176	0x3e9b8023	0.30371198
177	0xbdd611da	-0.10452624
178	0x3e03fc72	0.12889269
179	0x3e55f594	0.20894462
180	0x3f0c3510	0.54768467
181	0x3aba4e46	0.0014214001
182	0xbf0eb7c9	-0.55749184
183	0xbea1db27	-0.31612512
184	0xbd0a9426	-0.03383269
185	0x3df6bba0	0.120475054
186	0x3ea9e65b	0.3318356
187	0xbde13cd8	-0.10997933
188	0xbc7d81c7	-0.015472836
189	0xbd6f3de1	-0.05840862
190	0xbd09405a	-0.033508636
191	0x3f0f1209	0.55886894
192	0x3f15b039	0.5847202
193	0x3e01d63f	0.12679385
194	0xbdbbd9f7	-0.09172433
195	0xbf25c54f	-0.64754194
196	0xbe2d85f0	-0.16945624
197	0x3f2845ce	0.65731514
198	0x3e88a839	0.26690844
199	0x3e8c3a86	0.273884
200	0x3e4e78ef	0.2016332
201	0xbe1a7ad0	-0.15085912
202	0xbe459ad8	-0.1929735
203	0x3b319fbe	0.002710327
204	0x3ea8301d	0.32849208
205	0x3e3b51eb	0.18292968
206	0xbe5417c9	-0.20712198
207	0xbdb87a02	-0.09007646
208	0x3e415e3a	0.18883601
209	0x3c925549	0.017862933
210	0x3eb1f1b6	0.34754723
211	0x3dfe279b	0.12409898
212	0x3e1ee8ff	0.15518568
213	0xbde68bfb	-0.11257168
214	0xbd4c79da	-0.049920894
215	0xbdd278aa	-0.10276921
216	0xbd426dfe	-0.047468178
217	0x3cbd8d7c	0.023138754
218	0x3caa9dcb	0.020827195
219	0xbe98bf3d	-0.29833403
220	0x3e536ccc	0.20646971
221	0xbdeb8ae5	-0.115011014
222	0xbe8d66a7	-0.2761738
223	0xbeea9e2f	-0.4582381
224	0x3e30b992	0.1725829
225	0x3ee77dba	0.4521311
226	0xbed40ed8	-0.41417575
227	0x3e1a75d8	0.15084016
228	0xbec716ae	-0.3888449
229	0xbdaa2df3	-0.08309545
230	0x4039544b	2.8957698
231	0x3eafa144	0.34302723
232	0xbc8b47a8	-0.017001942
233	0x3da202ed	0.07910714
234	0xbcf5fae8	-0.030026868
235	0x3e350cf8	0.17680728
236	0xbe28b738	-0.16476142
237	0x3e8c4b56	0.27401227
238	0x3e9c1ff4	0.30493128
239	0xbf20a816	-0.6275648
240	0xb9b64625	-0.00034766007
241	0x3dc7b717	0.097517185
242	0xbb4f9955	-0.0031677086
243	0xbdbf1a72	-0.09331216
244	0x3ddc3583	0.10752394
245	0x3ddab275	0.10678569
246	0xbe38e0a7	-0.18054448
247	0xbf1aba15	-0.6044019
248	0xbe566f1e	-0.20940825
249	0x3eadfb4f	0.33980796
250	0xbe8e30e8	-0.27771688
251	0x3edcbabf	0.43111226
252	0x3e12199f	0.14267586
253	0x3ebc07bf	0.3672466
254	0x3e3e59fe	0.18589017
255	0xbe826915	-0.25470796

fc1.bias f4 [100]
0	0xbbecbb15	-0.0072244504
1	0x3e54676f	0.20742582
2	0xbe4a9b58	-0.19785821
3	0xbf040fd4	-0.5158665
4	0x3bf1fee5	0.007385122
5	0xbf24e812	-0.6441661
6	0xbf35e8f4	-0.71058583
7	0xbf0c4886	-0.5479816
8	0xbe29a1d8	-0.16565645
9	0xbe612c6a	-0.21989599
10	0xbe60952f	-0.21931909
11	0xbc5bbc2c	-0.013411563
12	0xbefa4814	-0.48883116
13	0x3e17acd3	0.14812021
14	0xbe5b950c	-0.21443576
15	0xbe3c45b8	-0.1838597
16	0xbe94dd5f	-0.29075143
17	0xbeedceb5	-0.46446767
18	0x3ec60ff0	0.38684034
19	0xbd871da5	-0.06597451
20	0xbedbb113	-0.42908534
21	0xbf851d39	-1.0399543
22	0x3dbf436c	0.093390316
23	0x3d8cfe32	0.068844214
24	0xbe6bdeca	-0.23034206
25	0x3ea2e9e4	0.3181907
26	0xbed879e6	-0.422805
27	0xbec1e589	-0.37870434
28	0xbeef96e3	-0.46794805
29	0x3e9c6fa7	0.30553934
30	0x3e8d8a56	0.27644604
31	0xbd8ea67a	-0.06965347
32	0xbea09a36	-0.31367654
33	0x3f1eac90	0.6198206
34	0x3ddaed69	0.10689814
35	0xbd957f71	-0.07299698
36	0xbe480635	-0.19533618
37	0xbd8298c1	-0.06376792
38	0xbeba6b37	-0.36409923
39	0xbf0c2e3d	-0.54758054
40	0x3e2aa8a9	0.16665901
41	0xbe68126c	-0.22663277
42	0xbe200506	-0.15626916
43	0x3dfcbdb3	0.1234087
44	0x3e2a79d4	0.16648036
45	0x3d821fe6	0.063537404
46	0xbea816a0	-0.32829762
47	0xbf34cb8a	-0.70623076
48	0x3e8effee	0.27929634
49	0xbb6fc94b	-0.0036588486
50	0xbe194acb	-0.14969938
51	0xbedf36f5	-0.43596616
52	0x3e876c36	0.26449746
53	0xbe7f28ed	-0.24917956
54	0xbee8b263	-0.45448598
55	0xbeda548f	-0.42642638
56	0xbda5bb85	-0.08092407
57	0xbdbfd8b7	-0.09367507
58	0x3f008f0e	0.50218284
59	0x3ee477fa	0.44622785
60	0xbf056938	-0.52113676
61	0x3e95d47d	0.29263678
62	0x3deba7fe	0.11506651
63	0xbddfce83	-0.10928061
64	0xbdcee7f2	-0.10102834
65	0x3e466a3c	0.19376463
66	0xbccb214e	-0.024796154
67	0x3d87b17c	0.06625649
68	0xbe3593c2	-0.17732146
69	0xbce033f2	-0.02736852
70	0x3c3b2da4	0.011424456
71	0x3ef48b22	0.477624
72	0x3e103b7d	0.14085193
73	0xbf0db98b	-0.5536124
74	0xbdb5dccd	-0.08880005
75	0x3e92948b	0.28628954
76	0xbde5adfe	-0.11214827
77	0xbd4fa638	-0.050695628
78	0xbe9d1418	-0.30679393
79	0xbe585680	-0.21126747
80	0xbdc55e2b	-0.09637102
81	0x3e150621	0.14553119
82	0x3e91e453	0.2849451
83	0xbd96f4d1	-0.07370914
84	0xbecdb54d	-0.40177384
85	0x3eee6c08	0.46566796
86	0xbee252cb	-0.4420379
87	0xbe346741	-0.17617513
88	0x3e8ae80b	0.2713016
89	0xbd96d442	-0.07364704
90	0xbd9b5bec	-0.07585892
91	0xbedb5a73	-0.42842445
92	0xbe701e76	-0.2344912
93	0xbd99c82b	-0.07508882
94	0xbed4b1e5	-0.41541973
95	0xbec0ef37	-0.37682506
96	0xbe200c45	-0.1562968
97	0xbdc8e699	-0.09809608
98	0x3d84a915	0.06477562
99	0x3ddb4053	0.10705628

fc2.weight f4 [100, 100]
0	0x3da0fd1a	0.07860775
1	0x3e859781	0.2609215
2	0x3e3867fb	0.18008415
3	0x3f09d7fa	0.5384518
4	0x3e919805	0.28436294
5	0x3d0d781a	0.034538366
6	0x3e6eb4ad	0.2331111
7	0xbe7394c9	-0.23787226
8	0x3e4f4a5a	0.20243207
9	0xbe303817	-0.17208897
10	0xbecd0f57	-0.40050766
11	0xbde983f0	-0.11402118
12	0xbb8182bc	-0.0039523523
13	0xbea601e2	-0.3242331
14	0xbe3c2691	-0.18374087
15	0x3ea3cc8f	0.31992003
16	0xbdd8cdf0	-0.105861545
17	0xbed766de	-0.4207067
18	0x3e22e33a	0.15906993
19	0xbef8370c	-0.48479497
20	0x3eed492a	0.46344882
21	0xbe659044	-0.22418314
22	0xbe3c5c34	-0.18394548
23	0x3ddc25ae	0.10749374
24	0x3e882022	0.26587015
25	0xbe7cff57	-0.2470678
26	0x3db1a473	0.08673944
27	0x3f08332f	0.532031
28	0x3dce0c50	0.10060942
29	0x3da7a8c1	0.08186484
30	0xbe1cecf7	-0.1532477
31	0xbe98d185	-0.2984735
32	0xbea57c06	-0.32321185
33	0xbd784d9c	-0.06062089
34	0x3f6d7018	0.92749166
35	0x3e88898a	0.26667434
36	0xbdc66d6a	-0.09688838
37	0xbd8f2e4a	-0.06991251
38	0x3ea95327	0.33071253
39	0xbe8a07b9	-0.26959017
40	0x3ec8557a	0.39127713
41	0xbeb54086	-0.3540079
42	0x3e2859fd	0.16440578
43	0xbe1fd673	-0.1560915
44	0xbe2c6c60	-0.16838217
45	0xbf0cca60	-0.549963
46	0xbda18be4	-0.0788801
47	0x3ef11754	0.4708811
48	0xbe9cb76d	-0.30608693
49	0xbeaa1220	-0.33216953
50	0x3d8d7fc2	0.069091335
51	0x3ed6c1dd	0.4194478
52	0xbd8401f7	-0.06445687
53	0x3de03f72	0.10949601
54	0xbef34bac	-0.4751867
55	0x3e69ffb2	0.22851446
56	0x3e59aad4	0.21256572
57	0x3e09ff5e	0.13476321
58	0x3f3db7b4	0.74108434
59	0x3e51b59b	0.20479433
60	0x3d943126	0.07235937
61	0x3ea3f290	0.32020998
62	0x3e2d0d9d	0.16899724
63	0x3ee89e62	0.45433336
64	0xbdabf4c5	-0.083962955
65	0x3cbb995a	0.022900272
66	0xbe3f2ad4	-0.18668681
67	0x3ee0d410	0.4391179
68	0x3f220910	0.6329508
69	0xbe94c0e9	-0.2905343
70	0xbf07c588	-0.53035784
71	0x3e5e9382	0.21735957
72	0x3e28a615	0.16469605
73	0x3ec13eff	0.37743375
74	0xbed9e003	-0.4255372
75	0x3e007cca	0.12547603
76	0xbf0022ac	-0.50052905
77	0x3db3e2f3	0.087835215
78	0xbea25fd7	-0.31713745
79	0xbed5b0c4	-0.41736424
80	0x3ded2a42	0.11580326
81	0xbe936fae	-0.28796142
82	0x3e6f8c23	0.23393302
83	0xbe6383a7	-0.2221819
84	0x3e85268d	0.26005974
85	0x3dc2cfac	0.095122665
86	0xbd39d033	-0.04536457
87	0x3c472419	0.012154602
88	0xbde51090	-0.111848
89	0xbefac071	-0.48974946
90	0xbddf059c	-0.10889742
91	0xbe870510	-0.2637105
92	0x3e986453	0.2976404
93	0xbe825120	-0.25452518
94	0x3e8409cc	0.25788724
95	0x3e6793e7	0.22615014
96	0xbe5be7aa	-0.21475092
97	0xbea70bf5	-0.3262631
98	0x3e82b9e2	0.25532442
99	0xbed76e3c	-0.4207629
100	0xbf44a5f1	-0.76815706
101	0x3e9a9628	0.30192685
102	0x3e0572a5	0.13032015
103	0x3e194956	0.14969382
104	0xbd58063c	-0.05274032
105	0xbaec7857	-0.0018041235
106	0x3eee1615	0.46501222
107	0x3e97193d	0.29511443
108	0xbeeff010	-0.4686284
109	0x3e8d0b6c	0.27547777
110	0xbe6ee27b	-0.23328583
111	0x3eb933eb	0.36172423
112	0x3e3ca1a5	0.18421037
113	0xbf17f3af	-0.59356207
114	0xbec97cbd	-0.3935298
115	0xbe969854	-0.29413092
116	0x3d4cdcdc	0.050015315
117	0xbec7d588	-0.390301
118	0x3e1ff3dd	0.1562037
119	0x3e345505	0.17610557
120	0xbeeb4116	-0.45948094
121	0x3ee6991e	0.45038694
122	0x3da47847	0.080307536
123	0xbe5b88b2	-0.21438864
124	0x3d66b261	0.05632246
125	0x3ecca501	0.39969638
126	0xbdcf516b	-0.10122951
127	0x3d1a8efb	0.037734013
128	0xbf0171fa	-0.5056454
129	0xbebdfd59	-0.3710735
130	0x3f03bf66	0.51463926
131	0x3e2de5ea	0.16982237
132	0xbee8b273	-0.45448646
133	0xbdf62233	-0.12018242
134	0x3ea8b0d9	0.32947424
135	0xbd995b12	-0.074880734
136	0xbdcdfeae	-0.10058342
137	0x3e5d6ff0	0.21624732
138	0xbf623a6e	-0.88370407
139	0xbdc83e77	-0.09777539
140	0xbf01c186	-0.5068592
141	0xbda50d2f	-0.08059155
142	0xbe2b1007	-0.16705333
143	0x3ee888fa	0.45417005
144	0x3e4348f2	0.19070795
145	0xbe3b7c6f	-0.18309186
146	0xbd013cbc	-0.03155206
147	0x3e3b1e54	0.18273288
148	0xbe1364e6	-0.14393958
149	0xbc46024f	-0.012085511
150	0xbc852eca	-0.016257662
151	0x3f0258a7	0.5091652
152	0x3e14bc2f	0.14524911
153	0xbf20290c	-0.6256263
154	0x3b82a6ec	0.003987184
155	0xbf452076	-0.77002656
156	0xbc46bdbf	-0.0121302
157	0xbe73f647	-0.23824416
158	0xbe191aee	-0.14951679
159	0xbedf16f7	-0.43572208
160	0xbdb6d2f1	-0.08926953
161	0xbdf0c4fe	-0.11756323
162	0xbe806501	-0.2507706
163	0x3cbe5582	0.023234133
164	0x3e4499f6	0.19199356
165	0x3c0889b9	0.008333617
166	0x3e61a99b	0.22037356
167	0x3d839a72	0.064259425
168	0xbecf48b2	-0.4048515
169	0x3f7111ae	0.941676
170	0xbf11a476	-0.5689157
171	0xbf2c4e2c	-0.6730678
172	0xbc62da12	-0.013845937
173	0xbdcb2bc5	-0.09920458
174	0x3e310ddc	0.17290443
175	0xbe87bb30	-0.2651
176	0xbe6bd86c	-0.23031777
177	0xbe80dda2	-0.25169092
178	0xbad61e58	-0.0016335947
179	0xbee296b8	-0.44255614
180	0x3e8c488e	0.27399105
181	0x3e43cb6b	0.19120567
182	0xbd9705e8	-0.073741734
183	0x3e008de7	0.12554131
184	0xbea01c95	-0.31271806
185	0xbe9a565c	-0.30144012
186	0xbdd32db2	-0.1031145
187	0xbf12f43e	-0.57403934
188	0xbdbcce3a	-0.09219022
189	0xbc20abae	-0.009806557
190	0x3df4e390	0.119574666
191	0x3d7cfd3c	0.06176494
192	0x3e64f95c	0.22360748
193	0xbf53b544	-0.82698464
194	0xbe0c9746	-0.13729581
195	0xbe0b707e	-0.13617131
196	0xbe6c6b8f	-0.23087905
197	0xbd799a4f	-0.060938176
198	0xbe93fe9c	-0.2890519
199	0xbeb8c142	-0.36084944
200	0xbec8ecf5	-0.39243284
201	0x3ea478a5	0.32123294
202	0xbd2efc86	-0.042721294
203	0xbdccd7df	-0.10002112
204	0x3d46e966	0.04856243
205	0x3d24dcc6	0.04024961
206	0x3e50896f	0.20364927
207	0xbdb3bf6a	-0.08776744
208	0xbdbe1346	-0.0928102
209	0x3eaa1fe0	0.33227444
210	0x3df178fa	0.117906526
211	0x3e925ff9	0.28588846
212	0x3d24e8fd	0.040261257
213	0x3f0920d7	0.53565735
214	0x3e88ed1f	0.2674341
215	0xbdcb19b2	-0.0991701
216	0x3e890fd6	0.26769894
217	0x3eb68494	0.35648024
218	0x3d217aed	0.03942387
219	0xbe34213a	-0.175908
220	0xbe8027a5	-0.25030246
221	0xbf049eba	-0.518047
222	0x3ddc6918	0.107622325
223	0xbecd35eb	-0.400802
224	0x3e6e5ed6	0.23278365
225	0xbe9ffdd8	-0.31248355
226	0x3ebf4dba	0.37363988
227	0xbe00874c	-0.12551612
228	0xbd80e94c	-0.06294498
229	0xbea02618	-0.31279063
230	0x3e4e3a63	0.2013946
231	0x3ef12d78	0.47105002
232	0xbf2f769c	-0.6854036
233	0xbe26e760	-0.162992
234	0xbe808a93	-0.25105724
235	0x3e136d69	0.14397205
236	0x3d5511b1	0.052018825
237	0x3ea72dad	0.32652035
238	0x3e422eef	0.18963216
239	0x3e052a49	0.13004412
240	0xbdf58f9e	-0.119902834
241	0x3e30b926	0.17258129
242	0x3edcaa96	0.43098897
243	0x3ec420a4	0.38306153
244	0x3ebf42b9	0.37355593
245	0x3d80e917	0.06294458
246	0xbeb26d72	-0.34849125
247	0xbe10a06d	-0.14123698
248	0xbe9f69c2	-0.31135374
249	0xbedce391	-0.4314237
250	0xbe065f2e	-0.13122246
251	0x3e880618	0.2656715
252	0x3ec17329	0.37783173
253	0x3ec47238	0.38368392
254	0x3e72a3da	0.23695317
255	0x3de2619f	0.11053776

fc2.bias f4 [100]
0	0xbcd03ebc	-0.02542054
1	0xbd8ef335	-0.06979982
2	0x3e2d764b	0.16939656
3	0xbe59fbd2	-0.21287468
4	0x3e4a6d56	0.19768271
5	0xbdfc2916	-0.12312524
6	0x3ec18843	0.37799272
7	0xbea5ef0d	-0.32408944
8	0x3d20611c	0.03915511
9	0xbf126777	-0.57189125
10	0x3d5b792c	0.053582355
11	0x3e23cf60	0.15997076
12	0xbeed204d	-0.46313706
13	0x3de1dbf9	0.110282846
14	0x3cf98b7c	0.03046202
15	0xbd16321c	-0.03666888
16	0xbde2b96a	-0.11070521
17	0xbe530e43	-0.20610909
18	0x3df48dfc	0.11941144
19	0x3eb5d8a4	0.35516846
20	0xbdade5ec	-0.0849112
21	0x3e339223	0.17536215
22	0xbdf527e3	-0.119704984
23	0x3dd313cb	0.103065096
24	0xbdd63b99	-0.10460586
25	0x3d15e5ab	0.03659598
26	0x3ce3050c	0.027712367
27	0x3d812c75	0.06307308
28	0xbe469777	-0.19393717
29	0xbdaedc74	-0.08538142
30	0xbe0b583a	-0.13607875
31	0xbe672558	-0.2257284
32	0x3e08e1fa	0.13367453
33	0x3d0f0ef4	0.03492637
34	0xbdfe1350	-0.12406027
35	0xbef6aa2e	-0.48176712
36	0xbe6602df	-0.22462033
37	0xbe0b44f6	-0.13600525
38	0xbe241853	-0.16024904
39	0xbde18c09	-0.11013038
40	0xbc0ba42f	-0.008523031
41	0xbdad938f	-0.0847541
42	0xbd931894	-0.07182422
43	0x3db40a37	0.08791011
44	0xbd94470c	-0.072401136
45	0x3cd548f1	0.026035758
46	0xbda82eea	-0.08212073
47	0xbd116716	-0.0354987
48	0x3e4958c7	0.19662772
49	0xbea1e7ae	-0.3162207
50	0xbc0ae597	-0.00847759
51	0xbebeb287	-0.3724558
52	0x3e242875	0.16031058
53	0xbe8d4ea9	-0.27599075
54	0xbd85c504	-0.065317184
55	0xbe5c67cc	-0.2152397
56	0xbd2843af	-0.041080173
57	0xbc91deb6	-0.017806392
58	0xbcdc4c65	-0.026891897
59	0x3dabca7c	0.0838823
60	0x3e750d6e	0.23930904
61	0xbcf1b910	-0.02950719
62	0xbe9692a4	-0.29408753
63	0x3e90de6a	0.28294688
64	0xbe52e6e7	-0.20595895
65	0x3e0dc1f4	0.13843518
66	0xbdcf5b55	-0.10124842
67	0xbe270a9d	-0.16312642
68	0xbe9cd089	-0.3062785
69	0xbe17357e	-0.147665
70	0xbdee3956	-0.1163203
71	0x3db4a8f8	0.08821291
72	0x3cdb75bf	0.026789544
73	0xbd6ca2f4	-0.05777259
74	0x3e20455b	0.15651457
75	0xbd765515	-0.060139734
76	0x3eb2d415	0.3492743
77	0x3e0ea339	0.13929452
78	0xbde1108d	-0.10989485
79	0x3e8e16bd	0.27751723
80	0x3d88e433	0.066841505
81	0x3e853263	0.26015005
82	0xbe51b3e0	-0.20478773
83	0x3e12139b	0.14265291
84	0xbd900569	-0.07032282
85	0xbcaaf1ca	-0.020867247
86	0xbea9a6c7	-0.33135054
87	0x3c3bce61	0.011462779
88	0x3e8661b3	0.26246414
89	0x3d54cdde	0.051954143
90	0xbed70755	-0.4199778
91	0x3d8b8cc6	0.0681396
92	0xbe195493	-0.14973669
93	0xbd4fbee1	-0.050719146
94	0x3ea3412c	0.3188566
95	0xba9890fe	-0.0011639891
96	0x3e4671c9	0.19379343
97	0x3e8010e8	0.25012898
98	0x3d476d21	0.048688058
99	0x3e1eb4d1	0.15498663

fc3.weight f4 [4, 100]
0	0xbea02a3e	-0.31282228
1	0xbf658a38	-0.8966403
2	0x3e5d557f	0.21614645
3	0xbe269e9f	-0.16271447
4	0xbd484308	-0.04889205
5	0xbe16d5c2	-0.1472998
6	0x3ed7824e	0.42091602
7	0xbf3c3ffb	-0.73535126
8	0x3d775dae	0.060392074
9	0x3fbfe272	1.4990981
10	0xbedabd0e	-0.42722362
11	0xbe6c3b80	-0.23069572
12	0xbe9b74eb	-0.3036264
13	0xbef61820	-0.4806528
14	0x3d7eb6ea	0.06218616
15	0x3e99eb8d	0.30062523
16	0xbe21549d	-0.15754934
17	0xbf5ea932	-0.8697692
18	0x3f6b75a2	0.9197637
19	0x3e8d03f3	0.27542076
20	0xbec64a9b	-0.38728794
21	0xbed029ae	-0.406568
22	0xbeb1ed9e	-0.347516
23	0xbe479e26	-0.19493923
24	0x3f189d27	0.59614795
25	0x3b21d78c	0.0024695126
26	0xbe994ddc	-0.29942214
27	0xbd9f1442	-0.07767536
28	0x3eb88f73	0.36046943
29	0xbe11b670	-0.1422975
30	0x3f2f00df	0.68360704
31	0x3e5cd9dc	0.21567482
32	0xbeaaac4e	-0.33334583
33	0x3f41c75a	0.7569481
34	0xbf0ba760	-0.5455227
35	0xbdcef59c	-0.1010544
36	0x3f7c9d31	0.98677355
37	0x3f6d5243	0.92703646
38	0x3f991bca	1.1961606
39	0xbecdec47	-0.40219328
40	0xbe4b1857	-0.19833504
41	0x3e666b14	0.22501785
42	0x3ec051fa	0.37562543
43	0x3faa9483	1.3326572
44	0xbed7447f	-0.42044446
45	0x3e2779a9	0.16355003
46	0xbf095d45	-0.53657943
47	0x3f2239f9	0.6336971
48	0x3d9b5141	0.07583857
49	0xbf8fcfb3	-1.123526
50	0xbe4a204c	-0.19738883
51	0x3e5dc25b	0.21656172
52	0xbea4b8c4	-0.32172215
53	0xbbdd4651	-0.006752767
54	0xbf22bdaf	-0.63570684
55	0xbcfe3047	-0.03102888
56	0xbf8a483f	-1.0803298
57	0xbee7aaeb	-0.45247588
58	0x3e48d0d6	0.19610915
59	0xbe6a3ae8	-0.22874033
60	0x3fa25af2	1.2684004
61	0x3f655488	0.8958211
62	0xbf09e986	-0.53871953
63	0x3e9634ef	0.2933726
64	0xbe8863dd	-0.2663869
65	0xbe9db584	-0.30802548
66	0xbf488b50	-0.78337574
67	0x3ef72387	0.48269293
68	0x3ee1a8ff	0.44074246
69	0xbe296ed2	-0.16546181
70	0xbf5a27b5	-0.8521684
71	0xbefd90f1	-0.49524644
72	0xbf035070	-0.5129461
73	0x3efd9194	0.4952513
74	0xbee5a7d7	-0.44854614
75	0xbf4d383b	-0.80163926
76	0xbef81fe2	-0.48461825
77	0x3dc7f39d	0.097632624
78	0x3d1f24da	0.038853504
79	0x3f092bfd	0.53582746
80	0x3e5ebe90	0.21752381
81	0xbdb24821	-0.08705164
82	0xbe817ce1	-0.25290588
83	0xbf8e7c8b	-1.1131757
84	0x3e72c4b0	0.23707843
85	0x3f1e7e31	0.619113
86	0x3f5264ee	0.82185256
87	0xbf65207f	-0.8950271
88	0xbf154c0c	-0.58319163
89	0x3f88500a	1.0649426
90	0x3edaa8c7	0.42706892
91	0xbeff8561	-0.49906448
92	0x3f0f33b7	0.55938286
93	0x3c00fbb5	0.007872512
94	0x3ef6c262	0.48195177
95	0x3f21430c	0.6299293
96	0xbf3a022c	-0.72659564
97	0x3dd8fd2b	0.10595163
98	0x3eb542a3	0.35402402
99	0xbe3cafd6	-0.18426451
100	0x3e99a75d	0.300105
101	0xbf23b971	-0.63954836
102	0xbe136a7e	-0.14396092
103	0xbe1659a0	-0.14682627
104	0x3eb0c73a	0.34526998
105	0x3f1b0b72	0.6056434
106	0xbe8ed6ac	-0.27898157
107	0x3e609481	0.2193165
108	0xbe2cb4d0	-0.1686585
109	0x3dd04e42	0.101711765
110	0x3ebc5e11	0.36790517
111	0x3f1ba41f	0.60797304
112	0xbf989aa2	-1.192219
113	0xbe0bcce6	-0.13652381
114	0xbd879e2e	-0.06621967
115	0x3f065b22	0.5248281
116	0xbf4540a8	-0.7705178
117	0xbe9796f0	-0.29607344
118	0xbe7bf1bf	-0.24603938
119	0x3dd5f715	0.10447518
120	0x3e051eb0	0.12999988
121	0x3eaa2bd0	0.3323655
122	0x3d01326b	0.031542223
123	0xbe9db077	-0.30798694
124	0x3f43a999	0.7643066
125	0x3e490b65	0.19633253
126	0x3e1c8232	0.1528404
127	0xbf894c6f	-1.0726451
128	0xbf129b9e	-0.57268703
129	0x3e32fa41	0.17478277
130	0x3e8b552e	0.27213424
131	0xbf49b0b0	-0.7878523
132	0x3f2d4fa7	0.67699665
133	0xbeb24a1e	-0.34822172
134	0xbec46919	-0.38361433
135	0x3f64de28	0.89401484
136	0x3d5aa320	0.053378224
137	0xbde37ec7	-0.11108165
138	0x3e15baa0	0.14621973
139	0x3f03b7cf	0.51452345
140	0xbd646c10	-0.05576712
141	0xbef4664c	-0.47734296
142	0xbecd63aa	-0.401151
143	0xbd61fa92	-0.055170603
144	0xbf712fd2	-0.94213593
145	0x3e8f32e9	0.2796853
146	0xbeaa4b3d	-0.33260527
147	0x3e60ba8c	0.21946162
148	0xbeda8728	-0.4268124
149	0xbf48d095	-0.7844327
150	0x3ef2acd1	0.47397473
151	0xbec4f631	-0.3846908
152	0x3e8cae43	0.274767
153	0xbf083ea2	-0.5322057
154	0x3e89e71c	0.26934135
155	0x3f4d1c4c	0.801213
156	0x3ec2dc0e	0.38058513
157	0x3d8c2d73	0.06844606
158	0xbf651eff	-0.8950042
159	0xbf30bb64	-0.69035935
160	0xbdd6c45a	-0.1048667
161	0x3f9b0419	1.2110626
162	0xbee4ffce	-0.44726413
163	0xbea36929	-0.31916168
164	0xbea25334	-0.31704104
165	0x3f732fcb	0.949948
166	0xbeb778f1	-0.35834458
167	0x3edd1d29	0.4318631
168	0x3fa7e8ce	1.3117921
169	0xbf106c41	-0.5641518
170	0x3eac07c8	0.33599687
171	0xbf337c76	-0.7011179
172	0xbf01dea7	-0.50730366
173	0x3e3bed91	0.18352343
174	0x3f1be920	0.60902596
175	0xbf3e1501	-0.742508
176	0xbf2e7c98	-0.68158865
177	0x3f5bdac2	0.8588067
178	0x3f214814	0.6300061
179	0x3f35d2a9	0.71024567
180	0xbec11c2d	-0.3771681
181	0xbea5c1ba	-0.32374364
182	0x3f84a884	1.0363927
183	0xbeb0ff28	-0.3456967
184	0x3f07ce8d	0.53049546
185	0x3e978c2b	0.29599127
186	0xbeed15a5	-0.46305576
187	0xbf21954e	-0.63118446
188	0xbe37617a	-0.17908278
189	0xbe204f2f	-0.15655206
190	0x3f783603	0.96957415
191	0xbe775e48	-0.24157059
192	0xbe269509	-0.1626779
193	0x3d66b229	0.05632225
194	0x3e84b3ed	0.25918522
195	0x3f1270cb	0.5720336
196	0x3e28fe28	0.16503203
197	0x3ed9172e	0.42400497
198	0x3f0c429a	0.54789126
199	0xbf61fd07	-0.88276714
200	0xbf2a7a3d	-0.6659277
201	0x3f138c16	0.5763563
202	0x3f19b6cf	0.6004457
203	0xbee35704	-0.44402325
204	0xbf1df2f8	-0.61698866
205	0xbf0662c6	-0.52494466
206	0x3dbe8cf8	0.093042314
207	0x3ef4603d	0.47729674
208	0xbed9d93b	-0.42548546
209	0x3f8f1e12	1.1181052
210	0x3f65b28d	0.8972557
211	0xbea43693	-0.32072887
212	0x3ec9b28e	0.3939404
213	0xbf07225f	-0.5278682
214	0xbf85481f	-1.0412635
215	0xbe835331	-0.25649408
216	0xbe2ee1d3	-0.17078333
217	0xbf3a15ec	-0.726897
218	0x3dc02617	0.09382265
219	0x3e1ef18a	0.15521827
220	0xbf680e60	-0.90646935
221	0xbeb35597	-0.35026237
222	0x3f36d072	0.7141181
223	0x3f56a927	0.83851856
224	0x3dc96764	0.09834173
225	0xbf14205f	-0.57861894
226	0xbf084671	-0.53232485
227	0x3f3803d4	0.7188084
228	0x3e7ca281	0.24671365
229	0x3e92f3a1	0.287015
230	0x3f07d87a	0.5306469
231	0x3f22a852	0.63538086
232	0xbeff9613	-0.49919185
233	0xbf4b9310	-0.79521275
234	0xbf6e6e9d	-0.9313753
235	0x3f477c72	0.77924263
236	0x3de80fbc	0.11331126
237	0x3ebd777a	0.37005216
238	0x3e69247f	0.22767828
239	0x3d27a511	0.040928904
240	0x3e73b5d4	0.2379983
241	0xbe83eb62	-0.2576552
242	0xbf20638e	-0.6265191
243	0xbecb1be3	-0.39669713
244	0xbf0f4203	-0.559601
245	0xbf502558	-0.8130698
246	0x3f86e4bd	1.0538555
247	0x3e00eea3	0.12591033
248	0xbe13357f	-0.14375876
249	0xbeb3b88d	-0.3510174
250	0x3f508750	0.8145647
251	0xbf83a66d	-1.0285164
252	0xbf06a178	-0.5259013
253	0xbeded1d6	-0.43519467
254	0x3eb0368b	0.34416613
255	0xbf9465b7	-1.1593541

fc3.bias f4 [4]
0	0xbe69d9fb	-0.22837059
1	0xbbe0ed66	-0.0068642376
2	0x3bf4ebc8	0.0074743964
3	0x3e609f94	0.21935874
